model/model.pth (torch, 97503 bytes, 4 tensors)

linear1.weight f4 [1000, 20]
00000000: 3443 0cbe 0ca0 9bbe 7c2c 52be 9148 c6bb
00000010: 8d42 1fbe 69b6 a53d ba8a 103e fef2 30be
00000020: b054 a53e df32 b43d 87b9 123e b204 cbbe
00000030: 2963 54be e661 c4be ae53 4abd 5d51 d1bd
00000040: 7488 29be 8137 9abd 1338 a6bd 29d5 0c3c
00000050: 310b 843d 9280 10be 67e1 4fbe 8e89 9a3d
00000060: 4a9d 5ebe 7c80 25bd 34c8 49be e351 cabd
00000070: ffcb b5bd 7bf5 fb3d 5d7b c1bb 1e2a 173e
00000080: 2146 e9bc 59d2 53be cdc5 06be bfec 8dbd
00000090: 20b0 2bbe f39e 83bd 6c4d 2abe 94ae c2bd
000000a0: 52d6 dc3e 49ac 073d 5f5a 42bd 1fc2 883d
000000b0: 4001 263c 199f 97bd d551 773c f5c3 593e
000000c0: 7bdf 043e 9cce 98bd 69a4 b0be 96eb 81bd
000000d0: 8850 cebe f85a 2ebf 00c9 9a3e 28c8 46bf
000000e0: e39c 2fbf aca8 77bf d91e aa3e 4bd8 4abf
000000f0: 857d eabe 2b44 b93e c7ae 773e 9edf 54be
00000100: a6f9 f2bd 18bb b03c 8bd0 8b3e 2037 d5bd
00000110: 2abc 0f3d 4781 e33e 949d aebe 5682 5ebe
00000120: 6a1a 6fbe 569a 293d c785 5b3e d773 27be
00000130: 4d68 273d 4dfc d7bd 1019 d0be e909 073f
00000140: 8842 16be 1c95 adbc ec62 9bbe b33d f1bd
00000150: b7b2 06be 0b35 82be a3dd fe3d c172 eb3b
00000160: e813 2b3d 9b77 9abd 64ee 8e3b 02ca 95be
00000170: e3e9 9bbe bfa2 1fbe 6968 35bd 44fa 87be
00000180: 6c97 dcbd 72d8 2abc efa1 b0be e181 39be
00000190: 92c1 07bc a04c e23d 7831 783e c092 9f3d
000001a0: 1533 41be da71 f6bd 7d62 19be 017f 2f3d
000001b0: 4626 c93a b1b1 a2be 06b4 ca3c 668e 54be
000001c0: a824 233f 560f 21bf 5e68 0dbf fa13 75bf
000001d0: 9b42 0b3f 3c82 42bf 74b4 63bf f337 81bf
000001e0: 210e bfbd 60e1 00be 9856 e4bd 53e2 9cbd
000001f0: 5b80 b93d b6c4 ac3c ea68 02bd 0cb3 42be
00000200: a89c 203e 4cd5 833d 12da 10be 4d9f 90bc
00000210: 26bd 043d fabe 50bd 50ea c9bd c8ab afbc
00000220: f159 6bbe 2fa5 62bd a662 95be 0731 a6be
00000230: bf17 62be 1d65 1ebd 4827 b7be 37ad 99bd
00000240: 8ac7 ffbd 668e 9ebe 23aa f23d 2b67 1dbe
00000250: 5a93 d43d ae93 15be 15c8 233e d283 cfbe
00000260: a017 85bd a1d4 37bc 8ccb 62be 0d3a 00be
00000270: d5ac 28be e206 70be 35d3 eebd ee59 4fbe
00000280: 495b 06bd b44f 843a 4736 023d 9fcd 2b3d
00000290: 3d7b 2dbe 65c9 003d 161b 2a3d 0731 7d3b
000002a0: dc21 36be f702 58be ee5b d03c ab10 b83d
000002b0: 8a2e 8bbd 4447 a8bc 551f f0bc 6e15 32be
000002c0: 8bdd 56be 4d35 77be 31e1 5abe 3ce6 78be
000002d0: 1897 60bd fc34 803d d03d 6d3d c965 503c
000002e0: 1f85 af3d 7aef d4bd 77ea 3bbe 1508 8abd
000002f0: 4118 613d 0d69 3ebe abcb 70bd 698d 423d
00000300: 4f26 a5bd 1e80 4abe 6c44 6f3d 1e3c 5ebe
00000310: 3061 463d 6766 0ebc 7ab6 90be 86c0 29be
00000320: 767f cfbd a461 87be 3aba 2dbe 893f 6a3d
00000330: a5e0 88be c813 ccbd 363d 3f3e 9d02 0abd
00000340: 93b7 e5bd 5118 b6bb e6a3 23be 3dca 1ebe
00000350: 400d 35bc 5986 36be a9b2 eabc 7b9f c5be
00000360: 3d86 55be 6ab0 b3be 7bf8 7ebc 2d22 a6be
00000370: 51bc 883e 1f7b 823e bf9a 33bd c976 853d
00000380: 1200 97bd abbe 76be 6195 e3bc b4b8 8fbd
00000390: d45c e83d d92d 50bd 668c d6be 3646 e03e
000003a0: 72a7 b5be e6a2 9abe d15b c13e 4142 1fbf
000003b0: b689 e7be 4693 30bf e6d5 b23e 618f 2bbf
000003c0: 013f b53c 11d6 2ebd 531f 07be d47d 6cbd
000003d0: a9fb eb3c 7c06 dc3c f76e 81be d03b df3c
000003e0: 2a4e 0d3e 091d 1cbe ceb6 eebd 9679 6c3e
000003f0: 6dbd 38be e635 593d bbd9 bebd 2e00 f2bd
-0.13697511 -0.30395544 -0.20524782 -0.006051131 -0.15552731 0.080914326 0.1411542 -0.17280194
0.32291174 0.087987654 0.14328586 -0.3965202 -0.20740952 -0.3835594 -0.04939621 -0.10220597
-0.16555959 -0.07530118 -0.08116164 0.008595743 0.06447447 -0.14111546 -0.20300828 0.07545768
-0.21739689 -0.040405735 -0.19705278 -0.098789 -0.088768 0.12302681 -0.0059045986 0.1476216
-0.028475823 -0.2068571 -0.13161393 -0.06929921 -0.16766405 -0.064268015 -0.16631097 -0.095059544
0.43132263 0.03312329 -0.047449466 0.06677651 0.010132134 -0.07403392 0.015095194 0.21266158
0.12975876 -0.074612826 -0.34500435 -0.063437626 -0.40295815 -0.6810756 0.30231476 -0.77649164
-0.68598765 -0.9674175 0.3322666 -0.79236287 -0.4579889 0.3618482 0.24187766 -0.20788428
-0.11864023 0.021573588 0.27307543 -0.10410905 0.035091557 0.44434568 -0.34104598 -0.21729407
-0.2334992 0.04140695 0.21437751 -0.16352783 0.040870953 -0.105461694 -0.4064412 0.52749497
-0.14673817 -0.021189265 -0.3034891 -0.11779346 -0.13154112 -0.25431094 0.124446176 0.0071853106
0.04176703 -0.07542344 0.0043619145 -0.29255682 -0.3045188 -0.15589426 -0.044289026 -0.26558125
-0.10771069 -0.010427581 -0.34498546 -0.18115951 -0.008285897 0.11049771 0.24237621 0.07791662
-0.18867142 -0.12033434 -0.14978977 0.04284573 0.0015346489 -0.31776193 0.024744045 -0.20757446
0.6372781 -0.62914026 -0.55237377 -0.95733607 0.54398507 -0.7597997 -0.88947225 -1.0095199
-0.09328867 -0.12585974 -0.11149329 -0.076603554 0.09057685 0.021089893 -0.031838335 -0.19013613
0.1568476 0.064371675 -0.14145687 -0.017654086 0.03240695 -0.05096338 -0.09859145 -0.021444216
-0.22983529 -0.055333313 -0.29176825 -0.3245928 -0.22079371 -0.038670648 -0.35772157 -0.07503741
-0.12489231 -0.30968016 0.11848857 -0.15371387 0.103796676 -0.14607117 0.15994294 -0.40530258
-0.06498647 -0.011220128 -0.2214796 -0.12522145 -0.1647218 -0.23440126 -0.11661378 -0.20249149
-0.0328019 0.0010094554 0.031790044 0.041944142 -0.16941543 0.031442065 0.041529737 0.003863396
-0.17786354 -0.21094881 0.02543446 0.08987554 -0.06795986 -0.020541795 -0.029311815 -0.17390987
-0.2098295 -0.24141426 -0.21374966 -0.24306577 -0.054831594 0.06260106 0.057920277 0.01271958
0.08570313 -0.10397239 -0.1835116 -0.06739823 0.05495477 -0.18594761 -0.058787983 0.04749814
-0.080639474 -0.19775435 0.05841486 -0.2170262 0.04843253 -0.008691407 -0.2826422 -0.16577348
-0.10131733 -0.2644168 -0.16965571 0.057189498 -0.2673389 -0.099647105 0.18675694 -0.0336939
-0.11216655 -0.005557098 -0.15980491 -0.15506835 -0.011050522 -0.17824687 -0.028649645 -0.38598236
-0.20851989 -0.3509553 -0.015562172 -0.3244795 0.26706174 0.2548456 -0.04384875 0.06516797
-0.0737306 -0.24096172 -0.02778119 -0.07017651 0.113458306 -0.050824974 -0.4190399 0.43803567
-0.35479313 -0.30202407 0.37765363 -0.6221047 -0.45222253 -0.6897472 0.34928817 -0.67015654
0.02212477 -0.04268462 -0.13195543 -0.057737187 0.028806524 0.02685856 -0.25279972 0.0272502
0.13799348 -0.15245451 -0.11655961 0.23093256 -0.1804101 0.053029917 -0.093188725 -0.118164405

linear1.bias f4 [1000]
00000000: bfbf d5be 9b91 a3be b2b4 a03d 5f3d 58be
00000010: c9dc b0bd 9fb7 833e 2893 44be c4e8 46be
00000020: e586 8abe 7020 a8be 3fbf c9be 3628 5cbd
00000030: eb9e cbbe 9eb0 debe a2c6 95be b743 a93e
00000040: 754a fdbd e40a d6be aaef a5be afde e1be
00000050: 4eb8 98be 0546 6ebe b723 93be cc47 32bd
00000060: f4ba 9ebe 1900 62be 14fa 8fbe 7157 32be
00000070: 3a58 70bd 9fc1 e9bd cfe8 8d3c 973f 2e3e
00000080: dc1a 9bbe 971c 48be 3876 a8be b810 28be
00000090: 2d12 b6be 0686 96be e850 84be 8f1e acbe
000000a0: c628 9dbd 81c5 adbe 9b67 b4be 9139 b3be
000000b0: a9eb ffbe 246a 95be 436d 69be 0c28 c3be
000000c0: 4b34 68bd b2f3 7fbe d116 a3be 74d7 a4be
000000d0: e8ad 70be 4180 84be e3d6 e5be 1608 1cbe
000000e0: 0723 b33d 5817 81be 697a 16bd 564b bdbe
000000f0: 4f50 92be 6160 6cbe c8b4 79be 239b e5be
00000100: f713 a7be 3bbc c0be e1eb 26be 7a19 53be
00000110: 5cee 26be 6ff3 93bd 26bd 81be 16e1 9a3d
00000120: 7022 383c 6843 85be 373b b0be 0cfd e0be
00000130: 680d 87be 2685 a9be bf98 8cbe d4f4 77be
00000140: 19e4 e6bd 5dc3 bfbe 5d4b 87be a3ab a6bd
00000150: ad09 babe e3e3 c93d 28e0 acbe 5288 8bbe
00000160: eded 94be 4fae 8abe 7392 83bd 0a18 aebd
00000170: 254e a8be 122d a9be c474 9fbe f5d2 56be
00000180: 7a83 3dbe 6bf9 febc b4e2 ae3c 10f8 d4be
00000190: d036 48be e83a c6be b46f 51be 7bc1 7fbe
000001a0: 9bf3 b63d 3e74 babe 10e2 08bd a9a8 7cbe
000001b0: a71e 61bc abe4 a3be 504d a7be a546 81bd
000001c0: b42a 48be ea71 93be ca79 b1be 40bf 82be
000001d0: 24f5 8cbe 2c2f e6bd 6bf6 a7be 2302 91be
000001e0: f616 ebbe 07e7 ecbe 4319 61be 6bdd 4abe
000001f0: f562 96be d923 d3be 6e7e eb3d 540f 01bf
00000200: 8fdc f53d a319 97be 82bd b7bd 4d2a 8ebd
00000210: a0e1 9bbe f219 98be 54a0 f73d 5417 d6be
00000220: 43b6 2e3d b532 98be e166 91be fdf3 82be
00000230: a3f8 b8bd 49a3 24be 6022 013e 6912 edbd
00000240: 3e9f a9be e46c 91be 4d54 84be 5849 99be
00000250: cd21 abbe 5420 9c3c 30a2 9dbe 53f8 a2be
00000260: 159a 53bd 10b0 99be c655 f1ba ee44 8f3d
00000270: f7e4 13be 28e1 e4be 676f 7ebe 36e1 90be
00000280: 9a7b b9be b010 bdbd 39d1 ccbe 1eb3 cbbe
00000290: ebf2 a9be d2d7 34be 85af a73d e481 81be
000002a0: 3ada 8fbe 7dde a2be 727a a3be 619f bfbe
000002b0: aa99 dd3e 9fff 913d e9c3 d4be d097 adbe
000002c0: 06e0 39be b061 7bbe cddd 90be 6ab3 45be
000002d0: 00ea 11be e9f7 3fbe 92f2 5abe 1344 8fbe
000002e0: 993c 3fbe 15a5 c8be f842 54be 6d9c a23e
000002f0: badd bebd b97e 8ebc 9810 85be fb30 8dbe
00000300: 8ac1 d0be 2478 26be c0cc 9fbe f94c 7dbe
00000310: 39fa 88be a1e0 0abf 8c31 e6be 569c a4be
00000320: 3701 aebe 77e4 6bbe c691 efbe d5e1 c1be
00000330: c9e0 8bbe 839d 6dbe 1843 2cbe 38fa 82be
00000340: eb54 5dbe 0153 9e3e 83c4 7bbe ea4f d9bd
00000350: 2fe7 b5be ceb8 8abe 1a5b afbe ab20 6a3d
00000360: 35ae 3bbe 6aca 83be 0e45 23be 3804 ccbe
00000370: 22d7 60be bde8 c6be f344 b43e 2211 4dbe
00000380: 34ba 1dbe bd94 8abe 2732 06be 3970 78be
00000390: 9246 8cbe 8b6a 9ebe ecdd b03d 5063 bebd
000003a0: f44f 22be 5ee4 85be 31b5 37be 5753 babe
000003b0: 828e 6fbe f674 4fbe 381d 9fbe 4255 0fbe
000003c0: 672c c7bd 6304 97be a225 31be cb2c 22be
000003d0: 4064 7fbe 2058 81be bcd3 78be b1a9 52be
000003e0: fb3d 06be d7bd febd c0a6 0fbf 3dfd 31be
000003f0: 23ff 39be 3ca1 93be 4051 bbbd 1ee2 f6be
-0.41747853 -0.31947026 0.07846965 -0.21117161 -0.086358614 0.2572603 -0.1919676 -0.1942473
-0.2705604 -0.32837248 -0.39403722 -0.053749286 -0.39769682 -0.43494123 -0.29253107 0.33059475
-0.12367717 -0.41805184 -0.32409412 -0.44115207 -0.29828113 -0.23268898 -0.28738186 -0.043525502
-0.3100201 -0.2207035 -0.28120482 -0.17416169 -0.05867789 -0.114138834 0.017322926 0.17016445
-0.3029393 -0.19542156 -0.32902694 -0.16412628 -0.35560742 -0.29399127 -0.25842977 -0.33617064
-0.076737925 -0.33939746 -0.35235295 -0.35004857 -0.49984482 -0.2918254 -0.22795586 -0.3811649
-0.056690495 -0.24995306 -0.31853345 -0.32195628 -0.2350384 -0.258791 -0.44890508 -0.1523746
0.08746915 -0.25213122 -0.036737833 -0.3697154 -0.28576896 -0.2308364 -0.24385369 -0.44844922
-0.3263242 -0.37643608 -0.16300918 -0.20615187 -0.16301864 -0.07224166 -0.2533962 0.07562463
0.011238679 -0.2602799 -0.34420177 -0.4394306 -0.26377416 -0.33109397 -0.27460286 -0.24214488
-0.11273975 -0.37453738 -0.26424685 -0.08138206 -0.36335507 0.09857919 -0.33764768 -0.27252442
-0.29087773 -0.27086112 -0.06424417 -0.08500679 -0.3287212 -0.33042198 -0.31143773 -0.20978911
-0.18507186 -0.031124791 0.021348335 -0.41595507 -0.1955216 -0.38716817 -0.20452768 -0.2497615
0.08933183 -0.3641681 -0.033418715 -0.24673714 -0.013740218 -0.32010397 -0.32676172 -0.063123025
-0.1954754 -0.28797847 -0.3466323 -0.25536537 -0.27530777 -0.11239466 -0.3280519 -0.28321943
-0.45915955 -0.4627001 -0.21982293 -0.19811027 -0.29372373 -0.41238287 0.11498724 -0.50414014
0.12004959 -0.29511747 -0.089716926 -0.06941662 -0.30445576 -0.29707295 0.12091127 -0.41814673
0.042654287 -0.29726186 -0.28398803 -0.25576773 -0.09031799 -0.16077913 0.1261077 -0.11575777
-0.33129305 -0.2840339 -0.25845566 -0.2993877 -0.33424225 0.019058384 -0.30787802 -0.3183008
-0.051660616 -0.30017138 -0.0018412403 0.06995569 -0.14442812 -0.4470303 -0.24847184 -0.28296822
-0.36227113 -0.092316985 -0.40003374 -0.39785093 -0.33193144 -0.17660454 0.081877746 -0.2529441
-0.2809618 -0.3181037 -0.31929356 -0.37426284 0.432813 0.07128834 -0.41555718 -0.33904886
-0.18151864 -0.24548984 -0.2829422 -0.19306722 -0.1424942 -0.18746914 -0.21381596 -0.27981624
-0.1867546 -0.39188448 -0.20728672 0.31759968 -0.09319635 -0.01739441 -0.25989223 -0.27576432
-0.4077266 -0.16256768 -0.312109 -0.24736394 -0.26753405 -0.54249007 -0.44959676 -0.32150525
-0.33985302 -0.23036371 -0.46790904 -0.3786761 -0.27319935 -0.23204617 -0.16822469 -0.25581527
-0.21614425 0.30922702 -0.24586682 -0.106109455 -0.35527942 -0.2709412 -0.34249192 0.05716006
-0.18328173 -0.25740367 -0.15944311 -0.3984697 -0.21957067 -0.3884944 0.35208854 -0.20026067
-0.15403062 -0.27066603 -0.13105069 -0.2426156 -0.2739759 -0.3094066 0.08636078 -0.09296286
-0.15850812 -0.26150793 -0.17940213 -0.36391708 -0.23394206 -0.20259461 -0.3107698 -0.13997367
-0.09725266 -0.29495534 -0.17299512 -0.158374 -0.24940586 -0.25262547 -0.2429952 -0.20572545
-0.13109581 -0.12438553 -0.56113815 -0.17381759 -0.18163733 -0.2883395 -0.091463566 -0.4821939

linear2.weight f4 [3, 1000]
00000000: 06c9 603d f858 aebc 0687 e93e 15ae 24be
00000010: e5a1 a3bc ae1c 213f c170 a1bc 2b51 413d
00000020: 85e7 1abd 074d 7fbc 081a ce3d 7845 a93e
00000030: 6d30 cbbd fee3 16be c62b 47bd 6756 fa3e
00000040: c31b 67be dec0 c2bc c4d7 9ebe b89e 9dbe
00000050: 7392 b6bb fb74 d73b ba62 93bd 193d bdbc
00000060: ef25 9abd 8246 ad3b 23c8 e3bd 3cae 59bb
00000070: 838f 7f3d 1c8f 1abd 423f 87be ed99 f83e
00000080: aa51 76bc 9380 07bc a04f b53b 2a43 13bc
00000090: 3eae 6b3d 28e3 b4bd 0567 dbb9 b6ad 223d
000000a0: c25f 7d3e 1cdd 263d 0f78 40bd b191 fbbc
000000b0: 85de bb3c 1a0d e83b 3cc9 28bc 9ee2 cabd
000000c0: 01aa 9ebb feb8 ae3b fe13 05bc bda3 a93b
000000d0: be8b 093c b3d6 9fbc f3bd 0ebc cef3 8bbc
000000e0: cf73 2c3e 3710 c3bd 1175 9cbd 5bcc 1cbd
000000f0: fc51 1b3e 213f 85bb a202 0ebd 9974 01be
00000100: af2a 36bd 2b20 67bd 0c0f 343d bf74 19be
00000110: e61e 15bd e9a9 9bbc a1bf 953e 734b a43d
00000120: e567 6cbc cc48 a93c d682 18bd 36ff 7ebb
00000130: 4ed2 453d c945 a6bd ea4c 233d 5881 47bd
00000140: 39e5 4bbb 489b 34b8 14cf 27bb d25e 86bd
00000150: cd1f 44bc 704c b9be 313b bfbc 2b27 83bb
00000160: 5c2c e1bd de17 cfbd f061 5fbd 6dfa 263c
00000170: ff74 abbd 55d4 263e 41fe bd3c b811 69bd
00000180: d515 24bd c26f 113d 5228 59be df9f edbd
00000190: 53bd 59bc 51bd 12bc 7841 703d 5709 e0bb
000001a0: 800b 2b3e 2918 3c3b d3d7 46bd 36da e83c
000001b0: 1929 bb3e 59a8 4a3d ee7e 0e3d e4f1 04be
000001c0: 5669 59bd 6a4d 15be 1dc9 4f3d 91fb 803d
000001d0: bcbd a1bc 1ba5 3d3c 9a1b 363d 6db7 f9bc
000001e0: ed59 e1bc c2d1 f9bd 5558 713c 03c9 a13c
000001f0: dd80 01bd c62c 2c3d 1b4a 13bd 124a 07be
00000200: 3038 c0bd f729 95bd 0894 94be d6a6 123d
00000210: 8575 a43d 47f0 ad3c af76 c63e 49ce 68bd
00000220: 9f77 323d 0dab c2bc ea37 eebd e7d7 3539
00000230: 546d 4abd 030f 0b3c cca0 a63e 32ee 83bc
00000240: 7cd7 5bbc 9610 20bd 39f9 9b3c 4f6b 27bd
00000250: b5bf 033e 022c 8c3d d4bf 053d 9966 4f3c
00000260: 7d48 83bb e33a 93bc 23c2 4dbe 16ba 973e
00000270: b4ce d13c da3a 21bc b4d2 793d 8f1d b0bd
00000280: e0c3 c43c de7c d23a 5fe5 d03c fb95 b5be
00000290: f3d5 9fbc db90 bb3c f6d8 fdbe 4f87 ebbb
000002a0: 1758 8abc 69b9 cf3c 6f19 233e 5df2 1f3b
000002b0: 5551 863e 0e32 37be 9618 adbe ea85 0b3d
000002c0: 9bc8 88bc c077 60bd 2b77 90bc e93b 19be
000002d0: 7456 dc3c 4fa6 54bc 2631 d43d 607c 7ebd
000002e0: 4156 95be 91ea d0bc 4dc4 aebd 9dfd b13e
000002f0: 8509 97be 5b77 5e3c b595 713c eeff 463d
00000300: 1e28 e5bd 7a99 e1bb 2aef c33c 6090 f539
00000310: d303 043d 5d08 fabc 297a 48bd 1316 00bd
00000320: cad8 bcbd 929a 14bb 7127 18be b8c8 22bc
00000330: 2d94 283e 78a5 ad3c 3934 083d 676d af3c
00000340: 2fd3 e9bd 8ad8 d13c 4fb9 34bd 7aa0 863d
00000350: 0292 6fbc dd2f c13c 7506 febd 8e15 0bbf
00000360: ff85 09bd 9018 523c 0fc3 0c3b 3982 98be
00000370: bf63 3eba 9444 23bd 2efe ed3e 0bb6 66be
00000380: d4ce c3bb 8f30 9c3c 1f45 553d e166 853c
00000390: d1e8 e8bc 5466 06bd 8532 843e 8770 1dbd
000003a0: 5dbf c93c f7b9 32bc 3020 9d3d 57b6 09bd
000003b0: faae c7bd 3f53 1a3d 0c7b 853c 9d4f 92bb
000003c0: 24e8 e43c f8a6 af3c 04a2 b93c 9503 0e3d
000003d0: d76a cbbb 0cf9 f2be ba74 92bd ee58 11be
000003e0: ab15 863e 3445 6a3e 4069 b0bd 6cf7 bdb8
000003f0: 2aaf 9e3d 83be 37bd 2668 7abd 4df7 ebbc
0.05487921 -0.021282658 0.45610827 -0.16082032 -0.019974658 0.62934387 -0.019707086 0.04719655
-0.03781845 -0.01558233 0.10063559 0.33060813 -0.09921346 -0.1473541 -0.04862573 0.48894045
-0.22569184 -0.023773607 -0.3102399 -0.30785155 -0.0055716573 0.0065752245 -0.07196565 -0.023100423
-0.075267665 0.005287946 -0.111221574 -0.0033215424 0.062392723 -0.037734136 -0.2641545 0.48554936
-0.015034119 -0.008270401 0.0055331737 -0.008988181 0.057539217 -0.08832389 -0.0004184769 0.039716445
0.2474356 0.04073821 -0.046989497 -0.03070912 0.022933254 0.00708164 -0.010301884 -0.09906505
-0.0048420434 0.0053321114 -0.008122442 0.00517699 0.008395134 -0.019511556 -0.00871228 -0.017084029
0.16841052 -0.09524577 -0.07639516 -0.038280826 0.15167993 -0.0040663634 -0.03467048 -0.12642135
-0.0444743 -0.056427162 0.043959662 -0.14985941 -0.03640642 -0.019001918 0.29247764 0.08022203
-0.014429067 0.020664595 -0.03723415 -0.0038909442 0.048296265 -0.08118779 0.039868273 -0.048707336
-0.003111197 -4.305996e-05 -0.0025605606 -0.06561054 -0.0119704725 -0.3619113 -0.023343654 -0.004002472
-0.10994789 -0.10111974 -0.05453676 0.010191542 -0.083719246 0.16291936 0.023192527 -0.056901664
-0.040059883 0.03550697 -0.21206787 -0.116027586 -0.013289767 -0.008956269 0.058656186 -0.006837051
0.16703606 0.0028700924 -0.04854567 0.028424364 0.36554793 0.049476955 0.03478902 -0.12982899
-0.05307897 -0.14580312 0.050728906 0.062979825 -0.019743793 0.011575009 0.044459917 -0.030482972
-0.0275087 -0.12198211 0.014730533 0.01974917 -0.031617034 0.042034887 -0.035959344 -0.1321185
-0.09385717 -0.07283395 -0.2901919 0.03580364 0.080302276 0.021232737 0.38762423 -0.056837354
0.04357111 -0.023763204 -0.116317585 0.00017341935 -0.04942067 0.008487466 0.32544553 -0.016104791
-0.013418075 -0.039078318 0.019039737 -0.04087382 0.12866099 0.06844331 0.032653645 0.0126587385
-0.004006444 -0.017972415 -0.20093589 0.2963416 0.025611259 -0.009840691 0.060991958 -0.08599388
0.024019182 0.0016058942 0.025499998 -0.3546599 -0.019511199 0.02289622 -0.4957959 -0.007187761
-0.016887708 0.025356965 0.15927671 0.0024405934 0.26233926 -0.17890188 -0.3380782 0.034063257
-0.016697219 -0.054801702 -0.017634949 -0.1496426 0.026896693 -0.012979104 0.10360937 -0.062130332
-0.2916737 -0.025502475 -0.08533535 0.34763804 -0.2949945 0.013578261 0.014745166 0.048583917
-0.11189292 -0.006884751 0.023917753 0.0004683761 0.03223021 -0.030521566 -0.048944626 -0.03127105
-0.09221037 -0.002267514 -0.14858796 -0.00993555 0.16462775 0.021197066 0.03325293 0.021414472
-0.11417233 0.02561595 -0.044122037 0.06573577 -0.014622213 0.023582393 -0.12403575 -0.54329765
-0.033575054 0.012823239 0.0021478569 -0.29786852 -0.0007262788 -0.039860323 0.46482986 -0.22530381
-0.0059755836 0.019066123 0.052067872 0.016284408 -0.028431328 -0.03281243 0.25819793 -0.038437393
0.024627382 -0.010908595 0.07672155 -0.03362116 -0.09750171 0.037677046 0.016294025 -0.004465057
0.027942725 0.021441922 0.022660263 0.034671385 -0.0062078047 -0.47455633 -0.0715117 -0.1419408
0.26188406 0.22877961 -0.08613825 -9.058308e-05 0.07748254 -0.04485942 -0.06113448 -0.028804446

linear2.bias f4 [3]
00000000: 4d60 833e 0b6d 1abe ac90 6fbe
0.2565941 -0.15080659 -0.23395032
