model/model.pth (torch, 16799 bytes, 4 tensors)

linear1.weight f4 [256, 11]
00000000: 1c24 dd3e e0db a2bd 4fc2 b13e 5357 c2bd
00000010: 4e8c 72be 65ab 9dbe 3cff b53d abdd f7be
00000020: 5045 ef3d f75b 0dbc 4f4e 61bc 91e6 b33e
00000030: f764 293d 1bfe d03e 3ca4 5bbe 3ffc dfbd
00000040: 2b20 b2bd 906a 8dbe c401 b43e 3cb9 c33e
00000050: 17e4 9c3e 7b89 d43e 282c 9b3e c4e3 db3d
00000060: da93 83be dca4 1f3e a990 553e 38d4 d4be
00000070: 0ac0 2a3c 482f 82be 42b2 8dbe 6686 a2be
00000080: 45b6 913e e324 26bc 458d e63e 1679 fc3d
00000090: f323 a2bd 28d6 17bd d0bc c83d 3774 edbd
000000a0: 1c06 7b3e e545 813e 468d 1b3e b19d 583e
000000b0: 495c cabe ed7a a33d d548 89bd 8127 22bf
000000c0: faa4 1ebf a480 063f 5f94 8d3e 8ad9 20bf
000000d0: 347b 32bf 919c bb3e abf3 f93e e1c8 6c3d
000000e0: 12a7 283e fa26 053f d96e c2bd 08d4 8fbe
000000f0: 54ec df3c 9b9e 3fbd 8c56 823e dc6f d93e
00000100: 1ddb e23e d767 cf3e 196a e13e 7672 223f
00000110: 8d47 37bf 8a50 dd3d 9560 89be e2a4 d13d
00000120: 923f a9be a5ae f63c 3738 d73d 59ed c0be
00000130: dc42 f43d 9191 3ebe e6dc d2bd bd27 16be
00000140: 7deb 56bd d073 a1be b6af d23d cd66 62bd
00000150: 8616 bf3d 6cd2 7d3e 62bd 68be db49 c83c
00000160: 0c81 c9be cbf2 01bc 4861 17be 5245 dcbd
00000170: 83fd 93be f8bb f8bd cc72 a4bd dd19 653e
00000180: f439 e8be 633d eb3d ce49 463e c441 e1be
00000190: e1b8 553e 0bdb 03bf 236d f3be 13bf 8c3e
000001a0: 543d a23e e0b9 8c3d 4764 1cbf b254 1a3c
000001b0: bf08 4bbc 13cd 61bf d9fa d7be 2a5c 273e
000001c0: a7fc 943e 6430 0c3e b75f 243e 2ec0 14bf
000001d0: dde0 2fbf 439b 443e 5a6e df3e d47d e4be
000001e0: 08db c7be aed4 9fbe 32cc a83d 1d0a 5ebc
000001f0: c391 c53e 800a 00be fac0 f8bd 5625 383e
00000200: 629d b7be 3a3e 0abf dbb8 913e df4b d0bd
00000210: 16c8 b3bd 01e6 15bf 800a 7b37 31f3 24bd
00000220: 725f e0be 1b06 86be c787 ac3e 5e96 b8bd
00000230: 4f51 bbbe 0689 6c3e 74ba ccbe 25ba 703c
00000240: a403 b7bd d946 49be dc5f 643e 1ca5 91be
00000250: d10b 6a3e a222 8fbe 5889 08be 26be 9cbd
00000260: f9d2 6dbe 2276 2ebe f2c6 ebbe 40db 0a3d
00000270: 87fb 91bd eac7 9fbe 534d d5be 8d1d b2be
00000280: d125 89be 2d7c b13d 7ca4 24be ac41 d43d
00000290: c028 9cbe c8c7 b4be 32ee 9f3e 9890 bfbe
000002a0: eb63 c03e 08d2 023e a206 bc3e f6a9 d5be
000002b0: ea31 c53d 3fee 2ebd e489 31be d9ea 19bf
000002c0: 662a 553e 26d6 d83e 4a29 22bf 8325 2abd
000002d0: bb57 bbbe ac77 aebd 24b4 debd 2897 a5bd
000002e0: d75d 9d3e 1cb6 0e3e 6e31 9e3e c318 05bd
000002f0: 8f01 903e 601e bd3c f7a5 d2bd c7ef c83d
00000300: 517d 90bc 6165 f23d 7fae 9d3e 5930 ad3e
00000310: 128a c93e 337e 213e dc19 6cbe 045d 8b3d
00000320: c4ff 813e 285c ed3d 0764 183e 557e 0f3c
00000330: 49ee 51bd 099a 91be ed66 5fbe a2dd 37be
00000340: 08d3 73be ecdd a0bd 8f3a 02bf 192a b5be
00000350: 3ef8 da3e d10e 283f 2bbd 4cbd 4197 aabe
00000360: 29b1 9c3e 1950 8bbe 1b90 43bf bd2a 44bf
00000370: 56c1 4fbe 8388 35bf bc01 2cbe 3c9d 023f
00000380: efb1 023f 8a6c ff3e dd85 df3e 4e4a 5cbe
00000390: 4b35 80be 81d9 82be d8cb 9ebe 4448 9d3d
000003a0: 182b 143f c944 283e 72f2 2abd 6fb6 e23b
000003b0: d371 aebd 8320 f0bd a57b de3e beaa d43e
000003c0: 54ff aa3e ed57 883e 5ca4 563e 3261 c73c
000003d0: 17e6 17bf 1b19 833e 27da fa3e 735a 2cbe
000003e0: 6a7a b2be fc79 a6be f91d 17bf 2687 533e
000003f0: 78ac b53e dffb 1e3e febb b6be d02c d33e
0.43191612 -0.07952094 0.34718558 -0.09489312 -0.23686334 -0.30794826 0.08886573 -0.48411307
0.11683142 -0.008627883 -0.01375158 0.35136846 0.041356053 0.40818867 -0.21449369 -0.10936784
-0.08697542 -0.27620363 0.35157597 0.3822726 0.3064277 0.4151114 0.30307126 0.10736802
-0.2569874 0.15590233 0.20855965 -0.4156816 0.010421762 -0.25426698 -0.27675062 -0.31743163
0.28459373 -0.01014063 0.45029655 0.12327783 -0.07917013 -0.03706947 0.09801638 -0.11594432
0.2451405 0.25248638 0.1519061 0.21153904 -0.39523533 0.079824306 -0.06703345 -0.6334153
-0.61970484 0.5254004 0.2765226 -0.6283194 -0.69719243 0.36642888 0.48818716 0.05780876
0.16469982 0.520126 -0.09493799 -0.28091455 0.02733437 -0.046782117 0.25456655 0.42468154
0.44307795 0.4050891 0.4402626 0.63455904 -0.7159355 0.10806377 -0.268315 0.10236527
-0.33056313 0.030112574 0.10508769 -0.37681082 0.11926815 -0.18610217 -0.10296039 -0.14663596
-0.052470673 -0.3153367 0.102874205 -0.05527382 0.09330468 0.24787301 -0.22728494 0.02444928
-0.39356267 -0.0079314215 -0.14783204 -0.10755409 -0.28904352 -0.12145227 -0.08029708 0.22373147
-0.45356715 0.11486318 0.19364092 -0.43995488 0.20871307 -0.5150611 -0.47544202 0.27489528
0.31687415 0.0687139 -0.6109051 0.009419607 -0.012392222 -0.88203543 -0.4218357 0.16343752
0.29099008 0.13690335 0.16052137 -0.5810574 -0.6870249 0.19199853 0.4363888 -0.4462725
-0.39034295 -0.3121695 0.08242072 -0.013552216 0.3858777 -0.12504005 -0.12146182 0.17982993
-0.3586226 -0.540012 0.28461346 -0.10170721 -0.08778398 -0.58554083 1.4963211e-05 -0.040270988
-0.4382282 -0.26176533 0.3369734 -0.09013055 -0.3658547 0.23099145 -0.39986002 0.014692818
-0.08936241 -0.19655932 0.22302192 -0.2844628 0.2285607 -0.2795611 -0.13333642 -0.076534554
-0.23225011 -0.17037252 -0.4605022 0.0339005 -0.07128053 -0.3120721 -0.41660556 -0.3478817
-0.26786664 0.08666263 -0.16078371 0.103640884 -0.3049984 -0.3530867 0.31236416 -0.37415004
0.3757623 0.12775433 0.3672381 -0.41731232 0.09628661 -0.042707678 -0.17337757 -0.60123974
0.20816955 0.42350882 -0.6334425 -0.04153968 -0.3659037 -0.08518919 -0.10874203 -0.080854714
0.30735657 0.13936657 0.30897087 -0.032494318 0.2812619 0.023085773 -0.102855615 0.09811359
-0.01763788 0.11835743 0.30797192 0.3382595 0.39363152 0.15770797 -0.2305674 0.06804851
0.25390446 0.11589843 0.14881907 0.008758147 -0.051252637 -0.28437832 -0.21816607 -0.1795564
-0.23810971 -0.07854828 -0.50870603 -0.3538368 0.4276752 0.6564761 -0.049985092 -0.33318523
0.30603912 -0.27209547 -0.7639176 -0.76627713 -0.20288596 -0.70911425 -0.16797537 0.5102117
0.51052755 0.49887496 0.43656817 -0.2151272 -0.2504066 -0.25556567 -0.31014895 0.07679799
0.57878256 0.1643249 -0.04173512 0.0069187204 -0.08517804 -0.11724951 0.43453708 0.41536516
0.33397925 0.26629582 0.20961136 0.024338339 -0.59335464 0.2560509 0.48994562 -0.16831379
-0.3485902 -0.32514942 -0.5903011 0.20657024 0.35483146 0.15525769 -0.35690302 0.41245127

linear1.bias f4 [256]
00000000: 9fbd b8be e9ce 93be 4e62 89be f12f d4be
00000010: 2a70 f13d f87d 95be 8e3c 9abd 8ea5 cabe
00000020: aee9 acbe 3da5 933e e1bc 3b3e 4137 83be
00000030: 34c9 973d 8163 54be 5e4e 623c 3ad1 023f
00000040: 6392 1fbe c698 a0be 2f6f acbe 840d 403f
00000050: 2086 993f 00c2 b1be b75b 7fbd 76a1 f5bd
00000060: a41b 8fbd 73f0 2ebe 1218 033f 5eaa 08be
00000070: 1446 bc3e e1ad 33bc ded7 a8be 76f0 59bb
00000080: 1958 ffbd 60c3 94be 05b2 803c 2c90 55bc
00000090: a98e afbe a056 5dbe 3a84 d7bd 34ae 8ebe
000000a0: eaef e03e 6d9e 9f3d ab7f 63be 495c 063e
000000b0: d6bb d0be df2c a6bd 92b8 8c3e add0 4fbe
000000c0: 08e0 d33e 5725 09bd 7f8e 1bbe e6df b6be
000000d0: e130 543d eebd 32be dc3f 8dbe be67 d8bd
000000e0: 9c31 5bbd c295 78be e87b d1be 7949 04bc
000000f0: 55d8 b53c 7e92 873e a7c0 053e 699b 11be
00000100: e375 b33b f9cb 02be 616a 953f d549 36b9
00000110: 3a7c 90be de61 fcbc 34b6 6bbe b454 b4be
00000120: dc0a f7bd 0cc8 a73e da77 433e 65dc 863e
00000130: 3bf4 f2be bdab 84be 3ad6 2bbc c1a5 be3b
00000140: 5341 3cbe 44bf 46be 7356 94be 64af 10bd
00000150: c9c3 7dbe f1d3 8a3d 9da1 b5be 10b4 d3be
00000160: be43 29bd b4f1 35be 5fdf 1ebe 113a 94be
00000170: 2a5a 83be 8ab8 9e3e d9f9 96be 9aa5 d3be
00000180: b9d4 1cbf c072 99be f431 70be ac3e e6bd
00000190: 83c9 b9be 791e 663d 40a6 7bbe 1b35 01be
000001a0: 5bf7 6b3f aa89 eebd a9d4 33be 8975 43be
000001b0: d02f 413e f09c 323f 54ec a1be b659 eebe
000001c0: 965a 6fbe c783 8abe 5621 4b3e f671 2dbe
000001d0: 77ec aabb 0779 8fbe e0ff 513e 0a84 0dbe
000001e0: 6c75 65be 5e3c 39be 95e6 223e 6dc4 49be
000001f0: 41d0 d0be b42c 94be 514a 5fbe e440 00bf
00000200: 0dd9 69be 7fbe 6bbe 8f3c e2be 0097 463c
00000210: 2cfa 55be f9c8 93be e6b9 8e3e 0f11 b2be
00000220: e30e f3bd a336 8bbe 806b fb3e 2493 e6be
00000230: 771c f3bd 8452 423e 4ac9 a4be 8567 a83d
00000240: c06c 84be 1007 ccbe 0922 babe d376 12be
00000250: cff5 b73d dce1 4fbe 143d 7fbe 64cd bcbe
00000260: 67ce 91be 0a65 88be 4a27 a0bd 153f b0bb
00000270: c63a 1ebb 3a55 313e 7bec 483e 97c0 70be
00000280: a9ac 253d 9678 bebe f5ad 863c bbe4 c4bd
00000290: dc6d ffbd 02fa fb3c 5d8f a13d 6b1c 80be
000002a0: 0011 42bd 4134 70bc bd84 1a3d 7165 2abe
000002b0: 5864 0c3d ddb0 91be 8ffc 3c3e 31fa fdbe
000002c0: c290 d73c 600e edbb 158c 84bd 0757 13be
000002d0: 9ac7 4e3d e2a6 0e3e 7a2e 97bd da90 a5be
000002e0: 596f b3be 3f32 afbe 6a4d bdbe 7dcd 84be
000002f0: b213 f2be 3095 11be dfff b6be 1f93 61be
00000300: b300 f3bd 7274 7bbb 1ba2 39be d00a 38be
00000310: f3d4 6fbe ceb9 973e 42c7 0ebc 584f 6bbe
00000320: 2df4 673e cb42 ac3d fe39 80be 1a20 4bbe
00000330: 464f 18be e6d5 cfbe 1973 14be 32ca b4bd
00000340: e77b 743e c22e 123e 06f9 00be 3e5c 7fbe
00000350: ff95 11be c42e 99be f66f 8abe d951 9fbe
00000360: 3ca1 f63e f973 5fbe 6233 7dbe d7e5 e63d
00000370: f8d5 d9be b389 8ebe 72a3 8dbe de91 38be
00000380: a5e9 08be da0f 6d3a 2b4b a43a 0a18 cabd
00000390: 8cb9 c3be c5e6 d13e 1eb8 293e 8d2c 7bbe
000003a0: 3df8 90bd de47 90be 6377 19be 05d1 20be
000003b0: 89f2 7c3d 926f 5bbe ca8b 82be 51cd a73d
000003c0: 4856 43be 87f5 55bd d019 bbbe fa11 66be
000003d0: 5184 cfbe c0b0 63be 9e18 57bd 5f2b 2bbd
000003e0: 2efa 4bbe 0b1c 9abe 1fa5 7fbd e27e 2c3e
000003f0: ee5b cebe a51c 143c 9b0d 82be 40b0 6a3e
-0.3608217 -0.28868797 -0.26832813 -0.41442826 0.11788972 -0.2919767 -0.07531081 -0.39579433
-0.33772033 0.28837004 0.1833377 -0.25628093 0.07411423 -0.20741083 0.0138126295 0.51100504
-0.15583186 -0.31366557 -0.33678576 0.75020623 1.1994057 -0.34718323 -0.062343325 -0.11993687
-0.06987694 -0.17083912 0.51208603 -0.1334624 0.36772215 -0.010966749 -0.32977194 -0.0033254898
-0.12467975 -0.2905531 0.015709886 -0.013034862 -0.3428853 -0.21615076 -0.10523267 -0.2786728
0.4393304 0.07793889 -0.2221667 0.13121141 -0.40768307 -0.08114027 0.27484566 -0.20294447
0.4138186 -0.033482876 -0.15191077 -0.35717696 0.051804427 -0.17455265 -0.27587783 -0.10566662
-0.053514108 -0.24275878 -0.40914845 -0.008074158 0.022197882 0.26478952 0.13061772 -0.1421944
0.0054766997 -0.12773122 1.1673089 -0.00017384377 -0.28219777 -0.030808385 -0.23018724 -0.35220873
-0.12062618 0.3276981 0.19088688 0.26340023 -0.47451958 -0.25912276 -0.010488087 0.0058180992
-0.18384294 -0.194089 -0.28972206 -0.035323516 -0.24781717 0.06778706 -0.35474864 -0.41348314
-0.04132437 -0.17767984 -0.15514897 -0.2895055 -0.25654727 0.31000167 -0.29487494 -0.4133728
-0.6126209 -0.2997036 -0.23456556 -0.112424225 -0.36286554 0.056181405 -0.24575138 -0.12617914
0.9217431 -0.11647351 -0.17561592 -0.19087805 0.18865895 0.6977072 -0.31625617 -0.4655282
-0.233744 -0.27053663 0.19836935 -0.16938004 -0.005216177 -0.28022024 0.20507765 -0.138199
-0.22408074 -0.18089435 0.15908273 -0.19703837 -0.40783885 -0.28940356 -0.21805693 -0.50099015
-0.22836705 -0.23021887 -0.44186828 0.012120962 -0.20896214 -0.28864267 0.27876204 -0.3477864
-0.11868074 -0.27190122 0.49105453 -0.45034134 -0.118706636 0.1897679 -0.3218482 0.0822287
-0.2586422 -0.39849138 -0.36354092 -0.1430314 0.08982431 -0.20301002 -0.24925643 -0.3687545
-0.28477785 -0.26639587 -0.07819994 -0.0053786137 -0.0024143918 0.17317668 0.1962146 -0.23510967
0.040447865 -0.37201375 0.016440371 -0.096139394 -0.12472126 0.030758861 0.078886725 -0.2502168
-0.047379494 -0.014660896 0.037724245 -0.1664026 0.034275383 -0.28455248 0.18455718 -0.49604943
0.026314143 -0.0072343796 -0.06472031 -0.14388667 0.050483324 0.13930848 -0.073819116 -0.32337075
-0.3504589 -0.34218022 -0.36973125 -0.25938025 -0.4728065 -0.14217067 -0.3574209 -0.22028778
-0.11865368 -0.0038368967 -0.18128245 -0.17972875 -0.23421077 0.29633945 -0.008714499 -0.22979486
0.2265174 0.08411177 -0.25044245 -0.19836465 -0.1487399 -0.4059288 -0.14497031 -0.08827628
0.2387539 0.14275649 -0.12594995 -0.24937531 -0.14217375 -0.29918492 -0.27038544 -0.31117132
0.48169887 -0.21821584 -0.24726632 0.11274307 -0.42546058 -0.2783943 -0.2766376 -0.18024394
-0.13370378 0.00090431946 0.0012534609 -0.09867866 -0.382275 0.40996376 0.16574141 -0.24528714
-0.07078598 -0.2817983 -0.14986949 -0.15704735 0.061754737 -0.2142928 -0.25497276 0.08193458
-0.19075882 -0.052236106 -0.3654313 -0.22467795 -0.40530637 -0.22235394 -0.05251371 -0.04178941
-0.19919655 -0.3009952 -0.06241333 0.16845277 -0.40304512 0.0090400325 -0.25401005 0.22918797

linear2.weight f4 [3, 256]
00000000: bd49 8cbd c3a9 20be 0ad5 893c ae2d 3fbd
00000010: 9feb 413f aed9 a0bd 4114 37bd 79b5 16bd
00000020: 99ab 2137 e7a2 9f3e becd 4b3e d80b 25be
00000030: acff 04be 6857 db3c 818c cc3a 3e8a 9b3e
00000040: 4b27 e5bc 04a6 c8bd d1dd a5b9 305e 0e3f
00000050: 8258 d93e c761 e6bd 6630 08be 777b 123d
00000060: 3b48 403e d940 cabd 2ebf aa3e 9f3c 083f
00000070: b3b6 3a3e 7053 cdbe e88a 69be a4a2 88be
00000080: eca3 89be 5777 80bd e1a8 723e c88c a63e
00000090: 0470 a8bc 480d fa3c c26b 1dbb 1388 86bd
000000a0: 725a 693e 21ec f73c 1273 babb 8c7a 113f
000000b0: a68c 25be 0d04 ccbd 7495 0e3e f324 febc
000000c0: cd75 153f 7cf5 e0bc fe7c 2d3e 4b5e 7abe
000000d0: b5a1 3dbd 8dde 9ebe 58e1 b83c 1c53 81bd
000000e0: 9dc3 2f3e 0ae3 eabc 60ce fdbd 8f47 153e
000000f0: e6fa a2bd 0282 193e d0c3 f53e 14ca 3c3a
00000100: 37ae 433e 792c 633d cfb2 8a3e 5c8d a93e
00000110: 6631 543d 6dbc ffbd 13e5 7a3e 66ee f13b
00000120: 3e0e d83a 91fe 693e c13a 703e c4d6 8b3e
00000130: ece1 bbbd 52ac 7cbd 8c80 463d 3ab7 ed3b
00000140: a545 673c 1446 25be b631 1abc e7ff f9be
00000150: 69d3 93be 941d 8e3e 05eb bf3b 0944 a2bc
00000160: d889 663c 1896 303c bbe5 073d d3d1 6d38
00000170: 61ed 3cbf 8652 bf3e 0778 a43c 6cd7 ea3c
00000180: ef7c 873b de72 22bc df6e cb3d 1260 0abf
00000190: d681 44bd 390e 9bbe 8cfd bdba d5c1 ed3c
000001a0: b27c ed3e 4769 943e 3213 233e 2806 7a3d
000001b0: f20a 4e3e 4fe8 1d3f ae5c 81bc e4ce e83c
000001c0: 4289 46bd 19c9 9fbd 398b 0a3f efca 11be
000001d0: fcfb 85bd 1e34 5a3d e011 073f 9971 79be
000001e0: 81a9 d0bd 24c8 4dbf 7ab4 c0be e749 43be
000001f0: eb25 b7bc bc06 99be d94c 42be be71 31be
00000200: c853 48be f74b 5f3c 64c4 12be 6776 bcbe
00000210: 5441 cd3d 936f 80bc 7859 243e 8ebf 0f3c
00000220: 4db4 01bf 59ca 66bd f8b5 2b3e 0971 593b
00000230: e675 11be c629 663e b44f c0bd 3e53 b53d
00000240: 327d 89bd 2311 623c 3afa 573a 8502 1a3e
00000250: 4080 863e 5200 1abe b0c3 83bd 7599 b83c
00000260: 1632 6fbd d3bc f3bd fcb6 1fbf f923 163d
00000270: 1fe3 ab3c 0c3d 143f 6ca0 fd3e 35d5 89be
00000280: fcd6 dbbe 251d 56bb 0a5b 713e edbd 54bd
00000290: be05 dabd c4d1 8cbe 99b7 e8bd 5b5a c93d
000002a0: a858 d1bd 4686 f43c 4689 993e f890 adbd
000002b0: 8772 943c be8d 29be 67fa f63d 24fb bfbd
000002c0: a8e0 3e3e 6a86 e2bb 8904 87be d57e c8bd
000002d0: 8e0a b83e 66a1 a8be ce1f 863d fbaf 7dbc
000002e0: bc27 49bd 30f4 f13c 7562 21bd 384e 923e
000002f0: f91c b2bd 9f66 9d3d 651d 2ebc 10c9 543c
00000300: 2451 7bbe 4c2b f83e fb15 b3bd 2ec6 cfbe
00000310: 0bd0 573c 5e2a ae3e 541e fdbe a45b 9e3b
00000320: 9c7c 213e 5d3e ee3e 50f9 85bd 0821 8fbe
00000330: f747 35be 5110 aabd f9b1 e9bc 3e73 2d3e
00000340: cf62 963e 2728 1bbf bb3c dc3e 9a84 6ebc
00000350: 9e5b 883e 42b6 abbd cc5a 5cbe c949 fdbd
00000360: fc67 6b3e 306b 62bd 8682 02bc cdfb 11bf
00000370: dfe6 84be 60f1 20be 3bbe 253b a6bf f33a
00000380: f915 96bd 2561 a5be 2a00 d63d 84fd bfbe
00000390: b054 3c3c c8bf a23e c918 903e 813a dfbe
000003a0: 04df 4ebd 3b54 e9bd f0bf 0f3d 9187 e5bc
000003b0: ccb9 02bf 5daa b3bd 5b60 fd3a efbc 8b3e
000003c0: 1527 883d 029f ecbe 5e2d cabd 8315 a1be
000003d0: 7584 38be 8d22 b03e 9291 3c3d b294 23bf
000003e0: 3456 2dbd f8e9 3f3c 7620 ae3e fcbf f13d
000003f0: bbbe 9dbe ab08 f2be 64a7 89be 446f b6be
-0.06850002 -0.15689759 0.016825218 -0.046674423 0.75750154 -0.07854019 -0.04469705 -0.03679416
9.636301e-06 0.31178972 0.19902703 -0.161178 -0.12988156 0.026775077 0.0015605838 0.30378908
-0.027972838 -0.0979729 -0.00031636519 0.5561247 0.4245034 -0.11249118 -0.13299713 0.035762277
0.18777554 -0.0987565 0.33348984 0.532175 0.18233757 -0.4010272 -0.22806895 -0.26686585
-0.26882875 -0.06272762 0.23697235 0.32529283 -0.020561226 0.030523911 -0.0024020527 -0.06568923
0.22788408 0.030263962 -0.005689987 0.56827617 -0.16166934 -0.0996171 0.139242 -0.031023478
0.58382875 -0.027460806 0.16942212 -0.24450032 -0.046296794 -0.31029168 0.02256839 -0.0631468
0.17164464 -0.028672714 -0.123928785 0.14578079 -0.07958011 0.14991 0.48000956 0.0007201743
0.19109426 0.055462334 0.27089545 0.3311566 0.051804923 -0.12487111 0.24501447 0.0073831556
0.0016483737 0.22851016 0.23459913 0.2731229 -0.091739506 -0.061687775 0.048462436 0.0072545083
0.014115726 -0.16140014 -0.009411266 -0.4882805 -0.2887223 0.2775694 0.005856874 -0.019807832
0.01407095 0.010777973 0.033178072 5.6700617e-05 -0.7379971 0.37367648 0.020076765 0.028667174
0.0041347663 -0.009915082 0.09933256 -0.5405284 -0.047975384 -0.3028429 -0.0014495119 0.02902309
0.46384197 0.2898657 0.15925291 0.061041027 0.20121363 0.616826 -0.015791263 0.028418966
-0.048470743 -0.07802028 0.54118687 -0.1423757 -0.06542203 0.05327236 0.5276165 -0.2435974
-0.1018858 -0.80383515 -0.37637693 -0.1907116 -0.022356948 -0.2988795 -0.18974628 -0.17328545
-0.1956321 0.013628951 -0.1433273 -0.36809084 0.10022226 -0.015678203 0.16049755 0.008773698
-0.5066574 -0.056345318 0.16768634 0.0033178946 -0.14205131 0.22476873 -0.09390202 0.08853768
-0.06713332 0.013798031 0.0008238886 0.15040024 0.26269722 -0.15039185 -0.06433809 0.022534112
-0.058397375 -0.1190125 -0.62388587 0.0366554 0.020982323 0.5790565 0.49536455 -0.26920477
-0.42937458 -0.003267118 0.23569885 -0.05193894 -0.106456265 -0.27503788 -0.113631435 0.09831687
-0.10221988 0.029849183 0.29987544 -0.08474916 0.018121017 -0.16557977 0.12059479 -0.09374073
0.18640387 -0.006912996 -0.26370648 -0.09789816 0.35945553 -0.32935637 0.06549035 -0.015483852
-0.04911016 0.029535383 -0.039400537 0.285753 -0.08696932 0.07685589 -0.010627125 0.01298739
-0.24542671 0.48470533 -0.08744427 -0.40580887 0.01317216 0.340167 -0.494372 0.0048327018
0.15770191 0.46531954 -0.06541693 -0.27954888 -0.17703234 -0.08303893 -0.028527247 0.16938493
0.2937226 -0.6060814 0.43015084 -0.014557982 0.26632398 -0.08384372 -0.21519011 -0.12367589
0.22988886 -0.055278003 -0.0079656895 -0.5702484 -0.2595739 -0.15717077 0.0025290388 0.0018596544
-0.0732841 -0.32300678 0.1044925 -0.37498105 0.0114948 0.31786942 0.2814391 -0.43599322
-0.050505653 -0.11393019 0.035095155 -0.028018745 -0.51064754 -0.087727286 0.0019331084 0.27292582
0.06648079 -0.46215063 -0.09871934 -0.31461725 -0.18019278 0.3440136 0.046037264 -0.63898766
-0.042318538 0.011713497 0.3400914 0.11804196 -0.30809578 -0.47272238 -0.2688552 -0.35631764

linear2.bias f4 [3]
00000000: bf64 c63e e02c 00bd 4a24 ea3d
0.38748738 -0.031292796 0.11432703
